…
    print('Total number of trainable parameters:', sum(p.numel()
          for p in model.parameters() if p.requires_grad))
    X1 = torch.rand((batch_size, tokens_no, d_in)).to(device)
    X2 = torch.rand((batch_size, tokens_no-1, d_out)).to(device)
    output_sequence = model(X1, X2)
    print(X1.shape, output_sequence.shape)




TransformerModel(
  (transformer_encoder): TransformerEncoder(
    (layers): ModuleList(
      (0-3): 4 x TransformerEncoderLayer(
        (self_attn): MultiheadAttention(
          (out_proj): NonDynamicallyQuantizableLinear(in_features=128, out_features=128, bias=True)
        )
        (linear1): Linear(in_features=128, out_features=512, bias=True)
        (dropout): Dropout(p=0.2, inplace=False)
        (linear2): Linear(in_features=512, out_features=128, bias=True)
        (norm1): LayerNorm((128,), eps=1e-05, elementwise_affine=True)
        (norm2): LayerNorm((128,), eps=1e-05, elementwise_affine=True)
        (dropout1): Dropout(p=0.2, inplace=False)
        (dropout2): Dropout(p=0.2, inplace=False)
      )
    )
  )
  (transformer_decoder): TransformerDecoder(
    (layers): ModuleList(
      (0-3): 4 x TransformerDecoderLayer(
        (self_attn): MultiheadAttention(
          (out_proj): NonDynamicallyQuantizableLinear(in_features=128, out_features=128, bias=True)
        )
        (multihead_attn): MultiheadAttention(
          (out_proj): NonDynamicallyQuantizableLinear(in_features=128, out_features=128, bias=True)
        )
        (linear1): Linear(in_features=128, out_features=512, bias=True)
        (dropout): Dropout(p=0.2, inplace=False)
        (linear2): Linear(in_features=512, out_features=128, bias=True)
        (norm1): LayerNorm((128,), eps=1e-05, elementwise_affine=True)
        (norm2): LayerNorm((128,), eps=1e-05, elementwise_affine=True)
        (norm3): LayerNorm((128,), eps=1e-05, elementwise_affine=True)
        (dropout1): Dropout(p=0.2, inplace=False)
        (dropout2): Dropout(p=0.2, inplace=False)
        (dropout3): Dropout(p=0.2, inplace=False)
      )
    )
  )
  (lin): Linear(in_features=12672, out_features=20, bias=True)
  (emb_in): Linear(in_features=127, out_features=128, bias=True)
  (emb_out): Linear(in_features=20, out_features=128, bias=True)
)
Total number of trainable parameters: 2123924
Lr: 1.00E-05
| Epoch: 0000 | loss: 2.711118 | acc: [003303/008928] 36.996% | [008928/022297] |
| Epoch: 0000 | loss: 2.664703 | acc: [005630/013392] 42.040% | [013392/022297] |
| Epoch: 0000 | loss: 2.633251 | acc: [008090/017856] 45.307% | [017856/022297] |
| Epoch: 0000 | loss: 2.608555 | acc: [010679/022297] 47.894% | [022297/022297] |
…
