TransformerModel(
  (transformer_encoder): TransformerEncoder(
    (layers): ModuleList(
      (0-3): 4 x TransformerEncoderLayer(
        (self_attn): MultiheadAttention(
          (out_proj): NonDynamicallyQuantizableLinear(in_features=128, out_features=128, bias=True)
        )
        (linear1): Linear(in_features=128, out_features=512, bias=True)
        (dropout): Dropout(p=0.2, inplace=False)
        (linear2): Linear(in_features=512, out_features=128, bias=True)
        (norm1): LayerNorm((128,), eps=1e-05, elementwise_affine=True)
        (norm2): LayerNorm((128,), eps=1e-05, elementwise_affine=True)
        (dropout1): Dropout(p=0.2, inplace=False)
        (dropout2): Dropout(p=0.2, inplace=False)
      )
    )
  )
  (transformer_decoder): TransformerDecoder(
    (layers): ModuleList(
      (0-3): 4 x TransformerDecoderLayer(
        (self_attn): MultiheadAttention(
          (out_proj): NonDynamicallyQuantizableLinear(in_features=128, out_features=128, bias=True)
        )
        (multihead_attn): MultiheadAttention(
          (out_proj): NonDynamicallyQuantizableLinear(in_features=128, out_features=128, bias=True)
        )
        (linear1): Linear(in_features=128, out_features=512, bias=True)
        (dropout): Dropout(p=0.2, inplace=False)
        (linear2): Linear(in_features=512, out_features=128, bias=True)
        (norm1): LayerNorm((128,), eps=1e-05, elementwise_affine=True)
        (norm2): LayerNorm((128,), eps=1e-05, elementwise_affine=True)
        (norm3): LayerNorm((128,), eps=1e-05, elementwise_affine=True)
        (dropout1): Dropout(p=0.2, inplace=False)
        (dropout2): Dropout(p=0.2, inplace=False)
        (dropout3): Dropout(p=0.2, inplace=False)
      )
    )
  )
  (lin): Linear(in_features=12672, out_features=20, bias=True)
  (emb): Linear(in_features=20, out_features=128, bias=True)
)
Total number of trainable parameters: 2107540
| Epoch: 0000 | lr: 10.000000E-6 | loss: 43.903162 | acc: [001528/004464] 34.229% | [004464/022297] |
| Epoch: 0000 | lr: 10.000000E-6 | loss: 43.011901 | acc: [003572/008928] 40.009% | [008928/022297] |
| Epoch: 0000 | lr: 10.000000E-6 | loss: 42.353477 | acc: [005912/013392] 44.146% | [013392/022297] |
| Epoch: 0000 | lr: 10.000000E-6 | loss: 41.924099 | acc: [008366/017856] 46.853% | [017856/022297] |
…
